model_zoo/wv_quality_k_4_c_5.tflite (tflite, 18936 bytes, 8 tensors)

model_1/dense_1/MatMul i1 [2, 19] scale=0.0051768636 zero_point=0
000000 2e a6 a7 6b fb ec cc 4f 3f 0a 68 46 d4 81 de 1a
       0.23813573 -0.46591774 -0.46074086 0.5539244 -0.02588432 -0.10353728 -0.2691969 0.40897223 0.3261424 0.05176864 0.5383938 0.36238045 -0.227782 -0.6574617 -0.17601337 0.13459845
000010 2c f0 32 d0 0e f2 ca 7b 52 3a f4 ef 56 13 01 26
       0.227782 -0.08282982 0.25884318 -0.24848945 0.07247609 -0.07247609 -0.27955064 0.6367542 0.42450282 0.3002581 -0.062122364 -0.08800668 0.44521028 0.09836041 0.0051768636 0.19672082
000020 fb 2c ba af 98 dd
       -0.02588432 0.227782 -0.36238045 -0.41932595 -0.5383938 -0.18119022

model_1/batch_normalization_6/batchnorm/mul_1 i1 [19, 19] scale=0.015580856 zero_point=0
000000 07 05 f6 0a fa 06 ed 01 0c ce ed da 09 fc 3c e3
       0.109065995 0.077904284 -0.15580857 0.15580857 -0.09348514 0.09348514 -0.29603627 0.015580856 0.18697028 -0.77904284 -0.29603627 -0.59207255 0.1402277 -0.062323425 0.93485135 -0.45184484
000010 fb 06 1f f7 0c f9 0f 10 ff ff fb 0a d2 fb f8 fc
       -0.077904284 0.09348514 0.48300654 -0.1402277 0.18697028 -0.109065995 0.23371284 0.2492937 -0.015580856 -0.015580856 -0.077904284 0.15580857 -0.7167194 -0.077904284 -0.12464685 -0.062323425
000020 f0 f8 10 f5 ff f4 14 04 01 e7 f4 00 ff f1 04 7f
       -0.2492937 -0.12464685 0.2492937 -0.17138942 -0.015580856 -0.18697028 0.31161714 0.062323425 0.015580856 -0.38952142 -0.18697028 0.0 -0.015580856 -0.23371284 0.062323425 1.9787687
000030 21 02 fc fd fa f2 02 04 f9 e9 f9 16 f6 01 0d 11
       0.51416826 0.031161712 -0.062323425 -0.04674257 -0.09348514 -0.21813199 0.031161712 0.062323425 -0.109065995 -0.3583597 -0.109065995 0.34277883 -0.15580857 0.015580856 0.20255113 0.26487455
000040 05 0c ed eb 00 11 0d 19 e8 f1 f9 00 f6 15 00 12
       0.077904284 0.18697028 -0.29603627 -0.32719797 0.0 0.26487455 0.20255113 0.38952142 -0.37394056 -0.23371284 -0.109065995 0.0 -0.15580857 0.32719797 0.0 0.2804554
000050 f9 fa ef e9 e0 c1 f9 f8 fc f8 ff 05 22 03 fd 12
       -0.109065995 -0.09348514 -0.26487455 -0.3583597 -0.4985874 -0.98159397 -0.109065995 -0.12464685 -0.062323425 -0.12464685 -0.015580856 0.077904284 0.5297491 0.04674257 -0.04674257 0.2804554
000060 ff ff 19 18 fb fd f2 0e 03 e8 f3 15 f8 f2 1a 1d
       -0.015580856 -0.015580856 0.38952142 0.37394056 -0.077904284 -0.04674257 -0.21813199 0.21813199 0.04674257 -0.37394056 -0.20255113 0.32719797 -0.12464685 -0.21813199 0.40510225 0.45184484
000070 ea fc 15 22 f6 10 0e f7 f8 fb 35 a8 f3 f5 f3 02
       -0.34277883 -0.062323425 0.32719797 0.5297491 -0.15580857 0.2492937 0.21813199 -0.1402277 -0.12464685 -0.077904284 0.8257854 -1.3711153 -0.20255113 -0.17138942 -0.20255113 0.031161712
000080 f3 fd f1 f7 fc e7 ff 02 fb 0b ee ec ff 07 06 fe
       -0.20255113 -0.04674257 -0.23371284 -0.1402277 -0.062323425 -0.38952142 -0.015580856 0.031161712 -0.077904284 0.17138942 -0.2804554 -0.31161714 -0.015580856 0.109065995 0.09348514 -0.031161712
000090 23 09 35 fd f4 fa 1f f3 01 09 04 01 0e 44 1d eb
       0.54533 0.1402277 0.8257854 -0.04674257 -0.18697028 -0.09348514 0.48300654 -0.20255113 0.015580856 0.1402277 0.062323425 0.015580856 0.21813199 1.0594982 0.45184484 -0.32719797
0000a0 ff f1 07 1a 07 08 48 d6 fc 31 ef ee ea 0b 0f 22
       -0.015580856 -0.23371284 0.109065995 0.40510225 0.109065995 0.12464685 1.1218216 -0.65439594 -0.062323425 0.76346195 -0.26487455 -0.2804554 -0.34277883 0.17138942 0.23371284 0.5297491
0000b0 04 0f f9 04 e7 ee e4 06 e6 13 13 e6 0f f0 e4 fc
       0.062323425 0.23371284 -0.109065995 0.062323425 -0.38952142 -0.2804554 -0.43626398 0.09348514 -0.40510225 0.29603627 0.29603627 -0.40510225 0.23371284 -0.2492937 -0.43626398 -0.062323425
0000c0 f0 05 fc f7 fe 31 ee b7 fd f7 14 f7 10 ff 02 13
       -0.2492937 0.077904284 -0.062323425 -0.1402277 -0.031161712 0.76346195 -0.2804554 -1.1374025 -0.04674257 -0.1402277 0.31161714 -0.1402277 0.2492937 -0.015580856 0.031161712 0.29603627
0000d0 10 03 08 f8 11 13 03 f1 fc 03 17 32 d4 e7 29 27
       0.2492937 0.04674257 0.12464685 -0.12464685 0.26487455 0.29603627 0.04674257 -0.23371284 -0.062323425 0.04674257 0.3583597 0.77904284 -0.68555766 -0.38952142 0.6388151 0.6076534
0000e0 05 18 22 25 08 22 f1 16 08 f0 fb ff 22 1f 13 09
       0.077904284 0.37394056 0.5297491 0.57649165 0.12464685 0.5297491 -0.23371284 0.34277883 0.12464685 -0.2492937 -0.077904284 -0.015580856 0.5297491 0.48300654 0.29603627 0.1402277
0000f0 11 09 ea f6 ea f7 08 03 e6 01 24 3c fa 00 fd eb
       0.26487455 0.1402277 -0.34277883 -0.15580857 -0.34277883 -0.1402277 0.12464685 0.04674257 -0.40510225 0.015580856 0.5609108 0.93485135 -0.09348514 0.0 -0.04674257 -0.32719797

model_1/conv2d_5/Conv2D i1 [19, 3, 3, 17]
000000 f4 f4 07 fc fb f4 f8 fa 0e 0d fe 07 fb 00 07 05
       -12 -12 7 -4 -5 -12 -8 -6 14 13 -2 7 -5 0 7 5
000010 f4 11 f6 fa 10 f7 fb 09 02 01 f0 09 12 11 10 f3
       -12 17 -10 -6 16 -9 -5 9 2 1 -16 9 18 17 16 -13
000020 f6 fb 0b 10 fa 04 f6 f5 02 f4 0c 0d 03 08 f4 10
       -10 -5 11 16 -6 4 -10 -11 2 -12 12 13 3 8 -12 16
000030 fd 11 06 09 07 11 ff 00 ef f7 f5 10 fb 0c 05 01
       -3 17 6 9 7 17 -1 0 -17 -9 -11 16 -5 12 5 1
000040 ee ff 03 f3 c4 c9 7f 11 f2 4f bf 18 5d 22 05 05
       -18 -1 3 -13 -60 -55 127 17 -14 79 -65 24 93 34 5 5
000050 18 64 10 df e5 f6 10 0f 08 03 09 f0 0b ff 11 01
       24 100 16 -33 -27 -10 16 15 8 3 9 -16 11 -1 17 1
000060 00 10 00 fb fb fc 09 11 ff f6 00 fb fd 11 fc 07
       0 16 0 -5 -5 -4 9 17 -1 -10 0 -5 -3 17 -4 7
000070 01 0d f3 f3 0e 0e fa f5 0b 04 fd 03 0d f7 f3 f0
       1 13 -13 -13 14 14 -6 -11 11 4 -3 3 13 -9 -13 -16
000080 0f 0e 05 fc 00 03 03 f0 0d f8 05 ef f1 f2 10 0a
       15 14 5 -4 0 3 3 -16 13 -8 5 -17 -15 -14 16 10
000090 00 01 0e f8 fa 11 04 0d 0d fc 04 0c 0c f5 01 fd
       0 1 14 -8 -6 17 4 13 13 -4 4 12 12 -11 1 -3
0000a0 f7 06 03 0b 05 04 0b 00 02 f8 f5 f8 04 fa 03 02
       -9 6 3 11 5 4 11 0 2 -8 -11 -8 4 -6 3 2
0000b0 0c f7 08 07 fc 0a f4 ff 01 fb fa ff f7 09 08 fc
       12 -9 8 7 -4 10 -12 -1 1 -5 -6 -1 -9 9 8 -4
0000c0 00 00 07 f7 f7 fe 01 f5 0a 09 08 ff 02 04 fc 09
       0 0 7 -9 -9 -2 1 -11 10 9 8 -1 2 4 -4 9
0000d0 0a 00 f6 01 fe fc 01 04 08 00 01 f6 08 03 0b 7f
       10 0 -10 1 -2 -4 1 4 8 0 1 -10 8 3 11 127
0000e0 07 1b 34 22 f7 4a 18 cf 0e 26 ef ee e1 c8 0c 0b
       7 27 52 34 -9 74 24 -49 14 38 -17 -18 -31 -56 12 11
0000f0 f7 0a fb 02 00 07 0c 03 ff fc 08 03 04 ff 01 fd
       -9 10 -5 2 0 7 12 3 -1 -4 8 3 4 -1 1 -3

model_1/conv2d_4/Conv2D i1 [17, 3, 3, 15]
000000 f6 e6 2f f1 f1 fb b9 2d 14 1b 3c 46 ec 98 e2 0a
       -10 -26 47 -15 -15 -5 -71 45 20 27 60 70 -20 -104 -30 10
000010 09 0e dd e0 17 a5 23 2c 1b 20 3d f3 d2 fd 05 0e
       9 14 -35 -32 23 -91 35 44 27 32 61 -13 -46 -3 5 14
000020 24 07 1a fa b3 f5 f2 e7 ef 24 f5 fc 09 09 fd 28
       36 7 26 -6 -77 -11 -14 -25 -17 36 -11 -4 9 9 -3 40
000030 f4 d9 24 ad 21 21 0e 2f 11 01 fd 09 0a eb c5 fd
       -12 -39 36 -83 33 33 14 47 17 1 -3 9 10 -21 -59 -3
000040 b0 22 aa 6a 41 0d 35 35 f3 d7 fc 0e ea e2 10 aa
       -80 34 -86 106 65 13 53 53 -13 -41 -4 14 -22 -30 16 -86
000050 03 e5 34 31 15 36 52 d4 01 0a f9 10 2e 10 1f f4
       3 -27 52 49 21 54 82 -44 1 10 -7 16 46 16 31 -12
000060 d3 c1 dd e4 10 1f 0c fb 07 0a 13 0f 25 da 06 e2
       -45 -63 -35 -28 16 31 12 -5 7 10 19 15 37 -38 6 -30
000070 f2 02 e2 37 cd e5 00 fd 15 c6 dd 0e e6 0a d2 7f
       -14 2 -30 55 -51 -27 0 -3 21 -58 -35 14 -26 10 -46 127
000080 4c 01 2d 31 e0 fb e9 17 fd f3 04 f4 01 12 01 00
       76 1 45 49 -32 -5 -23 23 -3 -13 4 -12 1 18 1 0
000090 04 01 f6 ff 1b f6 1a 0a f8 04 08 07 00 f2 fb 01
       4 1 -10 -1 27 -10 26 10 -8 4 8 7 0 -14 -5 1
0000a0 00 f4 ff 0b 01 02 18 f5 fc 0b f8 f1 ee e9 0a 0a
       0 -12 -1 11 1 2 24 -11 -4 11 -8 -15 -18 -23 10 10
0000b0 f5 fb fc 05 22 04 f4 0a 04 03 04 fe 02 0b 01 03
       -11 -5 -4 5 34 4 -12 10 4 3 4 -2 2 11 1 3
0000c0 fc 0e f2 36 ff eb 00 fd 07 14 01 03 02 fd 06 06
       -4 14 -14 54 -1 -21 0 -3 7 20 1 3 2 -3 6 6
0000d0 0f fe 7f ed d1 fa f0 0f eb 20 0b 01 15 26 01 0b
       15 -2 127 -19 -47 -6 -16 15 -21 32 11 1 21 38 1 11
0000e0 fb 2a f8 ec fa fd fd 02 07 03 03 09 0c f5 07 f6
       -5 42 -8 -20 -6 -3 -3 2 7 3 3 9 12 -11 7 -10
0000f0 21 02 03 03 06 ff fd 05 fb 03 01 fb 00 0a f2 37
       33 2 3 3 6 -1 -3 5 -5 3 1 -5 0 10 -14 55

model_1/conv2d_3/Conv2D i1 [15, 3, 3, 12]
000000 fd f8 fb f8 08 39 01 09 f5 fe fe fc 01 0b 07 08
       -3 -8 -5 -8 8 57 1 9 -11 -2 -2 -4 1 11 7 8
000010 08 fb 00 f1 f0 01 09 00 ff fa fc 03 fd 0f fe f9
       8 -5 0 -15 -16 1 9 0 -1 -6 -4 3 -3 15 -2 -7
000020 f7 fe 06 00 ff 0a 0d 01 0f f6 fb f5 f9 07 06 00
       -9 -2 6 0 -1 10 13 1 15 -10 -5 -11 -7 7 6 0
000030 0d 0a 11 08 06 f5 fc f5 f3 03 13 0b 02 fe f7 06
       13 10 17 8 6 -11 -4 -11 -13 3 19 11 2 -2 -9 6
000040 fd 41 fa 11 fb 01 07 04 05 06 07 fd 0b 08 06 07
       -3 65 -6 17 -5 1 7 4 5 6 7 -3 11 8 6 7
000050 ed 04 06 0a f8 f9 f4 02 09 7f 05 03 06 f3 08 fd
       -19 4 6 10 -8 -7 -12 2 9 127 5 3 6 -13 8 -3
000060 02 0c f4 02 09 ef 00 fc fd f7 07 00 0b 05 0c ef
       2 12 -12 2 9 -17 0 -4 -3 -9 7 0 11 5 12 -17
000070 0d 01 25 05 e6 3f f4 23 ff d4 14 ee f9 fb 1c f4
       13 1 37 5 -26 63 -12 35 -1 -44 20 -18 -7 -5 28 -12
000080 0f fd f5 ff da 09 19 ec 2c 06 34 f7 fc fd d2 f1
       15 -3 -11 -1 -38 9 25 -20 44 6 52 -9 -4 -3 -46 -15
000090 fe db 21 22 eb 05 f8 05 13 e5 e3 03 a1 ca 67 e0
       -2 -37 33 34 -21 5 -8 5 19 -27 -29 3 -95 -54 103 -32
0000a0 32 fb 34 c1 3c 2b 8b ed ec ea 48 cd 43 f6 51 b9
       50 -5 52 -63 60 43 -117 -19 -20 -22 72 -51 67 -10 81 -71
0000b0 17 2b 8d 02 0a f6 11 f3 22 f7 1a cf 43 38 b3 f3
       23 43 -115 2 10 -10 17 -13 34 -9 26 -49 67 56 -77 -13
0000c0 ea f4 3e c8 3c eb 54 b4 1e 2d 81 08 36 04 ec e7
       -22 -12 62 -56 60 -21 84 -76 30 45 -127 8 54 4 -20 -25
0000d0 ec f5 21 df 0b 51 f7 f4 fc f9 0d 01 01 ff 07 e1
       -20 -11 33 -33 11 81 -9 -12 -4 -7 13 1 1 -1 7 -31
0000e0 fb 0e 06 f0 01 fe f4 05 0a ac fa e3 01 f2 fb 28
       -5 14 6 -16 1 -2 -12 5 10 -84 -6 -29 1 -14 -5 40
0000f0 fc 00 02 0d ff 02 f5 fa f8 15 03 f8 fc fb 05 fb
       -4 0 2 13 -1 2 -11 -6 -8 21 3 -8 -4 -5 5 -5

model_1/conv2d_2/Conv2D i1 [12, 3, 3, 8]
000000 10 07 fa e6 09 81 1b c4 0d 06 d5 d6 2a 9e 0d d4
       16 7 -6 -26 9 -127 27 -60 13 6 -43 -42 42 -98 13 -44
000010 fd fe 01 33 fe 9f 22 05 03 02 13 f5 f3 81 0e d3
       -3 -2 1 51 -2 -97 34 5 3 2 19 -11 -13 -127 14 -45
000020 e9 13 ee df 13 8d e9 bd ed 0e dc e5 1b 82 e1 f6
       -23 19 -18 -33 19 -115 -23 -67 -19 14 -36 -27 27 -126 -31 -10
000030 f0 f9 0d fd f2 cc 14 00 00 05 03 fe fa e1 06 f6
       -16 -7 13 -3 -14 -52 20 0 0 5 3 -2 -6 -31 6 -10
000040 f4 0f ee 16 07 b6 05 f9 f6 e5 07 fc f5 0d e9 f5
       -12 15 -18 22 7 -74 5 -7 -10 -27 7 -4 -11 13 -23 -11
000050 ff 03 0c 07 e9 05 0f f9 02 fe e4 ff 02 ff fc f7
       -1 3 12 7 -23 5 15 -7 2 -2 -28 -1 2 -1 -4 -9
000060 10 f3 0f fb f8 0d 08 f3 f1 f2 25 81 b9 dd eb a7
       16 -13 15 -5 -8 13 8 -13 -15 -14 37 -127 -71 -35 -21 -89
000070 fe 11 20 01 e2 08 13 1f 0a 00 03 00 00 0c 0e 1c
       -2 17 32 1 -30 8 19 31 10 0 3 0 0 12 14 28
000080 21 fa 22 b8 e5 ef 02 ec 02 09 0c e3 ed 02 e6 06
       33 -6 34 -72 -27 -17 2 -20 2 9 12 -29 -19 2 -26 6
000090 f8 d7 d5 40 36 2e 14 d9 11 bd 10 4d d4 0f e7 fd
       -8 -41 -43 64 54 46 20 -39 17 -67 16 77 -44 15 -25 -3
0000a0 0e cb 0e fd e9 ea db ef 76 a2 2b 7f ce 1c 99 47
       14 -53 14 -3 -23 -22 -37 -17 118 -94 43 127 -50 28 -103 71
0000b0 65 a8 e3 4f e6 12 8d 17 0c f0 de 19 1e f0 da ea
       101 -88 -29 79 -26 18 -115 23 12 -16 -34 25 30 -16 -38 -22
0000c0 2c d2 05 fc de 32 ad 1a 1e 04 a2 ce 4e 29 83 cc
       44 -46 5 -4 -34 50 -83 26 30 4 -94 -50 78 41 -125 -52
0000d0 e5 23 cc 20 2f e5 06 15 39 f2 00 fc fd fe f5 e2
       -27 35 -52 32 47 -27 6 21 57 -14 0 -4 -3 -2 -11 -30
0000e0 da 0e 1b 16 f0 e4 03 00 f4 19 0b 08 f3 09 fc fd
       -38 14 27 22 -16 -28 3 0 -12 25 11 8 -13 9 -4 -3
0000f0 7f 26 ff f1 05 f9 01 05 58 4c d8 ef 19 e2 f9 d5
       127 38 -1 -15 5 -7 1 5 88 76 -40 -17 25 -30 -7 -43

model_1/conv2d_1/Conv2D i1 [8, 3, 3, 4]
000000 04 00 fc eb 15 05 df 00 ff e0 f6 03 1d 14 c7 fd
       4 0 -4 -21 21 5 -33 0 -1 -32 -10 3 29 20 -57 -3
000010 e7 b9 03 01 cd 81 3f f0 ef f7 06 00 dd b1 5c 10
       -25 -71 3 1 -51 -127 63 -16 -17 -9 6 0 -35 -79 92 16
000020 fa cc 54 ff f3 dc 09 0d fe f6 2d 0d 0c 28 d7 fc
       -6 -52 84 -1 -13 -36 9 13 -2 -10 45 13 12 40 -41 -4
000030 19 18 d7 e5 cc 81 1b fa fe fd 59 06 18 11 ed ec
       25 24 -41 -27 -52 -127 27 -6 -2 -3 89 6 24 17 -19 -20
000040 0b f7 b4 03 f6 f2 0b 05 f3 f8 03 fa ff fd 02 fc
       11 -9 -76 3 -10 -14 11 5 -13 -8 3 -6 -1 -3 2 -4
000050 fb 00 03 ff f0 05 fc fa f8 08 f6 00 ff 02 02 ff
       -5 0 3 -1 -16 5 -4 -6 -8 8 -10 0 -1 2 2 -1
000060 7f 0a f1 f9 fb 33 2b 00 f6 fe 11 fa f5 00 fd 66
       127 10 -15 -7 -5 51 43 0 -10 -2 17 -6 -11 0 -3 102
000070 ff 0a 05 0a 06 f7 01 16 2c 0c 04 ff 0b 01 fe b8
       -1 10 5 10 6 -9 1 22 44 12 4 -1 11 1 -2 -72
000080 02 0b 0c fd 95 15 12 d8 02 00 01 7f fe fd 08 bc
       2 11 12 -3 -107 21 18 -40 2 0 1 127 -2 -3 8 -68
000090 f4 ff 02 02 01 fc fb 03 fc 00 ff 04 ec f6 00 ec
       -12 -1 2 2 1 -4 -5 3 -4 0 -1 4 -20 -10 0 -20
0000a0 f2 ff 08 f6 fd fe fe 03 7f e9 fa e1 ee f5 f5 f0
       -14 -1 8 -10 -3 -2 -2 3 127 -23 -6 -31 -18 -11 -11 -16
0000b0 f7 04 02 05 0b fa de 0a f7 ff f1 fc ff f9 1d 01
       -9 4 2 5 11 -6 -34 10 -9 -1 -15 -4 -1 -7 29 1
0000c0 eb fd d6 00 05 fe 7f f7 05 fe ea f7 09 09 1d 07
       -21 -3 -42 0 5 -2 127 -9 5 -2 -22 -9 9 9 29 7
0000d0 08 ea 04 fd fa eb c5 f9 0b 13 07 f7 05 f1 0c fc
       8 -22 4 -3 -6 -21 -59 -7 11 19 7 -9 5 -15 12 -4
0000e0 ff de f6 f8 f5 12 ed 17 0d 34 3e 81 fe ff 18 f7
       -1 -34 -10 -8 -11 18 -19 23 13 52 62 -127 -2 -1 24 -9
0000f0 ff ee f3 11 ef 0a 03 f7 03 1e 3c f8 fe c2 03 fd
       -1 -18 -13 17 -17 10 3 -9 3 30 60 -8 -2 -62 3 -3

model_1/conv2d/Conv2D i1 [4, 3, 3, 3]
000000 fc 04 ff f9 0b fd 00 01 fe fa 04 01 0c ee 06 5a
       -4 4 -1 -7 11 -3 0 1 -2 -6 4 1 12 -18 6 90
000010 81 29 fa 07 ff fd 04 fe 14 de 0c 0e 03 e9 0a 00
       -127 41 -6 7 -1 -3 4 -2 20 -34 12 14 3 -23 10 0
000020 f2 0b f9 f7 16 a0 46 b7 7f df ed 16 00 12 cf 1d
       -14 11 -7 -9 22 -96 70 -73 127 -33 -19 22 0 18 -49 29
000030 f0 05 11 fb 1e ed ec eb 1e 01 fe fa 22 ea f5 b3
       -16 5 17 -5 30 -19 -20 -21 30 1 -2 -6 34 -22 -11 -77
000040 c2 7f e5 f8 03 18 fa f9 0a ac 1d 04 0c e3 2d f2
       -62 127 -27 -8 3 24 -6 -7 10 -84 29 4 12 -29 45 -14
000050 e7 17 e2 01 ff fe 04 1a cf 10 fb fa 0f cd 55 e9
       -25 23 -30 1 -1 -2 4 26 -49 16 -5 -6 15 -51 85 -23
000060 e3 22 04 f8 07 ff 5d ec 81 f0 13 fb
       -29 34 4 -8 7 -1 93 -20 -127 -16 19 -5
